…
MVSNet model , refine: True, refine_net: RefineNet,  fea_net: FeatureNet, cost_net: CostRegNet, origin_size: False, image_scale: 0.25
cost aggregation:  0
Training Phase in UNetConvLSTM: 128, 160, gn: True
Training Phase in UNetConvLSTM: 128, 160, gn: True
Training Phase in UNetConvLSTM: 128, 160, gn: True
Training Phase in UNetConvLSTM: 128, 160, gn: True
init DrMVSNet:  FeatNet ,  UNetConvLSTM ca:  0 normGN:  True
init DrMVSNet:  FeatNet ,  UNetConvLSTM ca:  0 normGN:  True
init DrMVSNet:  FeatNet ,  UNetConvLSTM ca:  0 normGN:  True
init DrMVSNet:  FeatNet ,  UNetConvLSTM ca:  0 normGN:  True
Number of model parameters: 936376
Model define:
DrMVSNet(
  (feature): FeatNet(
    (conv0_0): Sequential(
      (0): Conv2d(3, 16, kernel_size=(3, 3), stride=(1, 1), padding=(1, 1))
      (1): GroupNorm(2, 16, eps=1e-05, affine=True)
      (2): ReLU(inplace=True)
    )
    (conv0_1): Sequential(
      (0): Conv2d(16, 32, kernel_size=(3, 3), stride=(1, 1), padding=(1, 1))
      (1): GroupNorm(4, 32, eps=1e-05, affine=True)
      (2): ReLU(inplace=True)
    )
    (conv0_2): Sequential(
      (0): Conv2d(32, 32, kernel_size=(3, 3), stride=(1, 1), padding=(2, 2), dilation=(2, 2))
      (1): GroupNorm(4, 32, eps=1e-05, affine=True)
      (2): ReLU(inplace=True)
    )
    (conv0_3): Sequential(
      (0): Conv2d(32, 32, kernel_size=(3, 3), stride=(1, 1), padding=(1, 1))
      (1): GroupNorm(4, 32, eps=1e-05, affine=True)
      (2): ReLU(inplace=True)
    )
    (conv1_1): Sequential(
      (0): Conv2d(32, 32, kernel_size=(3, 3), stride=(1, 1), padding=(3, 3), dilation=(3, 3))
      (1): GroupNorm(4, 32, eps=1e-05, affine=True)
      (2): ReLU(inplace=True)
    )
    (conv1_2): Sequential(
      (0): Conv2d(32, 32, kernel_size=(3, 3), stride=(1, 1), padding=(1, 1))
      (1): GroupNorm(4, 32, eps=1e-05, affine=True)
      (2): ReLU(inplace=True)
    )
    (conv2_1): Sequential(
      (0): Conv2d(32, 32, kernel_size=(3, 3), stride=(1, 1), padding=(4, 4), dilation=(4, 4))
      (1): GroupNorm(4, 32, eps=1e-05, affine=True)
      (2): ReLU(inplace=True)
    )
    (conv2_2): Sequential(
      (0): Conv2d(32, 32, kernel_size=(3, 3), stride=(1, 1), padding=(1, 1))
      (1): GroupNorm(4, 32, eps=1e-05, affine=True)
      (2): ReLU(inplace=True)
    )
    (conv): Conv2d(96, 32, kernel_size=(3, 3), stride=(1, 1), padding=(1, 1))
  )
  (cost_regularization): UNetConvLSTM(
    (cell_list): ModuleList(
      (0): ConvLSTMCell(
        (conv): Conv2d(48, 64, kernel_size=(3, 3), stride=(1, 1), padding=(1, 1))
      )
      (1): ConvLSTMCell(
        (conv): Conv2d(32, 64, kernel_size=(3, 3), stride=(1, 1), padding=(1, 1))
      )
      (2): ConvLSTMCell(
        (conv): Conv2d(32, 64, kernel_size=(3, 3), stride=(1, 1), padding=(1, 1))
      )
      (3): ConvLSTMCell(
        (conv): Conv2d(48, 64, kernel_size=(3, 3), stride=(1, 1), padding=(1, 1))
      )
      (4): ConvLSTMCell(
        (conv): Conv2d(40, 32, kernel_size=(3, 3), stride=(1, 1), padding=(1, 1))
      )
    )
    (deconv_0): deConvGnReLU(
      (conv): ConvTranspose2d(16, 16, kernel_size=(3, 3), stride=(2, 2), padding=(1, 1), output_padding=(1, 1))
      (gn): GroupNorm(2, 16, eps=1e-05, affine=True)
    )
    (deconv_1): deConvGnReLU(
      (conv): ConvTranspose2d(16, 16, kernel_size=(3, 3), stride=(2, 2), padding=(1, 1), output_padding=(1, 1))
      (gn): GroupNorm(2, 16, eps=1e-05, affine=True)
    )
    (conv_0): Conv2d(8, 1, kernel_size=(3, 3), stride=(1, 1), padding=(1, 1))
  )
  (gatenet): Sequential(
    (0): Sequential(
      (0): Conv2d(32, 4, kernel_size=(3, 3), stride=(1, 1), padding=(1, 1))
      (1): GroupNorm(1, 4, eps=1e-05, affine=True)
      (2): ReLU(inplace=True)
    )
    (1): ResnetBlockGn(
      (stem): Sequential(
        (0): Sequential(
          (0): Conv2d(4, 4, kernel_size=(1, 1), stride=(1, 1))
          (1): GroupNorm(1, 4, eps=1e-05, affine=True)
          (2): ReLU(inplace=True)
        )
        (1): Conv2d(4, 4, kernel_size=(1, 1), stride=(1, 1))
        (2): GroupNorm(1, 4, eps=1e-05, affine=True)
      )
      (relu): ReLU(inplace=True)
    )
    (2): Conv2d(4, 1, kernel_size=(1, 1), stride=(1, 1))
    (3): Sigmoid()
  )
  (mask_net): UResVCG16(
    (conv1_0): ConvGnReLU(
      (conv): Conv2d(3, 16, kernel_size=(3, 3), stride=(2, 2), padding=(1, 1))
      (gn): GroupNorm(2, 16, eps=1e-05, affine=True)
    )
    (conv2_0): ConvGnReLU(
      (conv): Conv2d(16, 32, kernel_size=(3, 3), stride=(2, 2), padding=(1, 1))
      (gn): GroupNorm(4, 32, eps=1e-05, affine=True)
    )
    (conv3_0): ConvGnReLU(
      (conv): Conv2d(32, 64, kernel_size=(3, 3), stride=(2, 2), padding=(1, 1))
      (gn): GroupNorm(8, 64, eps=1e-05, affine=True)
    )
    (conv4_0): ConvGnReLU(
      (conv): Conv2d(64, 128, kernel_size=(3, 3), stride=(2, 2), padding=(1, 1))
      (gn): GroupNorm(16, 128, eps=1e-05, affine=True)
    )
    (conv0_1): ConvGnReLU(
      (conv): Conv2d(3, 8, kernel_size=(3, 3), stride=(1, 1), padding=(1, 1))
      (gn): GroupNorm(1, 8, eps=1e-05, affine=True)
    )
    (conv0_2): ConvGnReLU(
      (conv): Conv2d(8, 8, kernel_size=(3, 3), stride=(1, 1), padding=(1, 1))
      (gn): GroupNorm(1, 8, eps=1e-05, affine=True)
    )
    (conv1_1): ConvGnReLU(
      (conv): Conv2d(16, 16, kernel_size=(3, 3), stride=(1, 1), padding=(1, 1))
      (gn): GroupNorm(2, 16, eps=1e-05, affine=True)
    )
    (conv1_2): ConvGnReLU(
      (conv): Conv2d(16, 16, kernel_size=(3, 3), stride=(1, 1), padding=(1, 1))
      (gn): GroupNorm(2, 16, eps=1e-05, affine=True)
    )
    (conv2_1): ConvGnReLU(
      (conv): Conv2d(32, 32, kernel_size=(3, 3), stride=(1, 1), padding=(1, 1))
      (gn): GroupNorm(4, 32, eps=1e-05, affine=True)
    )
    (conv2_2): ConvGnReLU(
      (conv): Conv2d(32, 32, kernel_size=(3, 3), stride=(1, 1), padding=(1, 1))
      (gn): GroupNorm(4, 32, eps=1e-05, affine=True)
    )
    (conv3_1): ConvGnReLU(
      (conv): Conv2d(64, 64, kernel_size=(3, 3), stride=(1, 1), padding=(1, 1))
      (gn): GroupNorm(8, 64, eps=1e-05, affine=True)
    )
    (conv3_2): ConvGnReLU(
      (conv): Conv2d(64, 64, kernel_size=(3, 3), stride=(1, 1), padding=(1, 1))
      (gn): GroupNorm(8, 64, eps=1e-05, affine=True)
    )
    (conv4_1): ConvGnReLU(
      (conv): Conv2d(128, 128, kernel_size=(3, 3), stride=(1, 1), padding=(1, 1))
      (gn): GroupNorm(16, 128, eps=1e-05, affine=True)
    )
    (conv4_2): ConvGnReLU(
      (conv): Conv2d(128, 128, kernel_size=(3, 3), stride=(1, 1), padding=(1, 1))
      (gn): GroupNorm(16, 128, eps=1e-05, affine=True)
    )
    (conv5_0): deConvGnReLU(
      (conv): ConvTranspose2d(128, 64, kernel_size=(3, 3), stride=(2, 2), padding=(1, 1), output_padding=(1, 1), bias=False)
      (gn): GroupNorm(8, 64, eps=1e-05, affine=True)
    )
    (conv5_1): ConvGnReLU(
      (conv): Conv2d(128, 64, kernel_size=(3, 3), stride=(1, 1), padding=(1, 1))
      (gn): GroupNorm(8, 64, eps=1e-05, affine=True)
    )
    (conv5_2): ConvGnReLU(
      (conv): Conv2d(64, 64, kernel_size=(3, 3), stride=(1, 1), padding=(1, 1))
      (gn): GroupNorm(8, 64, eps=1e-05, affine=True)
    )
    (conv6_0): deConvGnReLU(
      (conv): ConvTranspose2d(64, 32, kernel_size=(3, 3), stride=(2, 2), padding=(1, 1), output_padding=(1, 1), bias=False)
      (gn): GroupNorm(4, 32, eps=1e-05, affine=True)
    )
    (conv6_1): ConvGnReLU(
      (conv): Conv2d(64, 32, kernel_size=(3, 3), stride=(1, 1), padding=(1, 1))
      (gn): GroupNorm(4, 32, eps=1e-05, affine=True)
    )
    (conv6_2): ConvGnReLU(
      (conv): Conv2d(32, 32, kernel_size=(3, 3), stride=(1, 1), padding=(1, 1))
      (gn): GroupNorm(4, 32, eps=1e-05, affine=True)
    )
    (conv7_0): deConvGnReLU(
      (conv): ConvTranspose2d(32, 16, kernel_size=(3, 3), stride=(2, 2), padding=(1, 1), output_padding=(1, 1), bias=False)
      (gn): GroupNorm(2, 16, eps=1e-05, affine=True)
    )
    (conv7_1): ConvGnReLU(
      (conv): Conv2d(32, 16, kernel_size=(3, 3), stride=(1, 1), padding=(1, 1))
      (gn): GroupNorm(2, 16, eps=1e-05, affine=True)
    )
    (conv7_2): ConvGnReLU(
      (conv): Conv2d(16, 16, kernel_size=(3, 3), stride=(1, 1), padding=(1, 1))
      (gn): GroupNorm(2, 16, eps=1e-05, affine=True)
    )
    (conv8_0): deConvGnReLU(
      (conv): ConvTranspose2d(16, 8, kernel_size=(3, 3), stride=(2, 2), padding=(1, 1), output_padding=(1, 1), bias=False)
      (gn): GroupNorm(1, 8, eps=1e-05, affine=True)
    )
    (conv8_1): ConvGnReLU(
      (conv): Conv2d(16, 8, kernel_size=(3, 3), stride=(1, 1), padding=(1, 1))
      (gn): GroupNorm(1, 8, eps=1e-05, affine=True)
    )
    (conv8_2): ConvGnReLU(
      (conv): Conv2d(8, 8, kernel_size=(3, 3), stride=(1, 1), padding=(1, 1))
      (gn): GroupNorm(1, 8, eps=1e-05, affine=True)
    )
    (conv9_0): Conv2d(8, 2, kernel_size=(1, 1), stride=(1, 1))
    (conv9_1): Conv2d(2, 2, kernel_size=(1, 1), stride=(1, 1))
    (conv9_2): Conv2d(2, 2, kernel_size=(1, 1), stride=(1, 1))
    (activate_fn): Sigmoid()
  )
)
**********************

optimizer: Adam 

start at epoch 0
Number of model parameters: 936376
Model define:
DrMVSNet(
  (feature): FeatNet(
    (conv0_0): Sequential(
      (0): Conv2d(3, 16, kernel_size=(3, 3), stride=(1, 1), padding=(1, 1))
      (1): GroupNorm(2, 16, eps=1e-05, affine=True)
      (2): ReLU(inplace=True)
    )
    (conv0_1): Sequential(
      (0): Conv2d(16, 32, kernel_size=(3, 3), stride=(1, 1), padding=(1, 1))
      (1): GroupNorm(4, 32, eps=1e-05, affine=True)
      (2): ReLU(inplace=True)
    )
    (conv0_2): Sequential(
      (0): Conv2d(32, 32, kernel_size=(3, 3), stride=(1, 1), padding=(2, 2), dilation=(2, 2))
      (1): GroupNorm(4, 32, eps=1e-05, affine=True)
      (2): ReLU(inplace=True)
    )
    (conv0_3): Sequential(
      (0): Conv2d(32, 32, kernel_size=(3, 3), stride=(1, 1), padding=(1, 1))
      (1): GroupNorm(4, 32, eps=1e-05, affine=True)
      (2): ReLU(inplace=True)
    )
    (conv1_1): Sequential(
      (0): Conv2d(32, 32, kernel_size=(3, 3), stride=(1, 1), padding=(3, 3), dilation=(3, 3))
      (1): GroupNorm(4, 32, eps=1e-05, affine=True)
      (2): ReLU(inplace=True)
    )
    (conv1_2): Sequential(
      (0): Conv2d(32, 32, kernel_size=(3, 3), stride=(1, 1), padding=(1, 1))
      (1): GroupNorm(4, 32, eps=1e-05, affine=True)
      (2): ReLU(inplace=True)
    )
    (conv2_1): Sequential(
      (0): Conv2d(32, 32, kernel_size=(3, 3), stride=(1, 1), padding=(4, 4), dilation=(4, 4))
      (1): GroupNorm(4, 32, eps=1e-05, affine=True)
      (2): ReLU(inplace=True)
    )
    (conv2_2): Sequential(
      (0): Conv2d(32, 32, kernel_size=(3, 3), stride=(1, 1), padding=(1, 1))
      (1): GroupNorm(4, 32, eps=1e-05, affine=True)
      (2): ReLU(inplace=True)
    )
    (conv): Conv2d(96, 32, kernel_size=(3, 3), stride=(1, 1), padding=(1, 1))
  )
  (cost_regularization): UNetConvLSTM(
    (cell_list): ModuleList(
      (0): ConvLSTMCell(
        (conv): Conv2d(48, 64, kernel_size=(3, 3), stride=(1, 1), padding=(1, 1))
      )
      (1): ConvLSTMCell(
        (conv): Conv2d(32, 64, kernel_size=(3, 3), stride=(1, 1), padding=(1, 1))
      )
      (2): ConvLSTMCell(
        (conv): Conv2d(32, 64, kernel_size=(3, 3), stride=(1, 1), padding=(1, 1))
      )
      (3): ConvLSTMCell(
        (conv): Conv2d(48, 64, kernel_size=(3, 3), stride=(1, 1), padding=(1, 1))
      )
      (4): ConvLSTMCell(
        (conv): Conv2d(40, 32, kernel_size=(3, 3), stride=(1, 1), padding=(1, 1))
      )
    )
    (deconv_0): deConvGnReLU(
      (conv): ConvTranspose2d(16, 16, kernel_size=(3, 3), stride=(2, 2), padding=(1, 1), output_padding=(1, 1))
      (gn): GroupNorm(2, 16, eps=1e-05, affine=True)
    )
    (deconv_1): deConvGnReLU(
      (conv): ConvTranspose2d(16, 16, kernel_size=(3, 3), stride=(2, 2), padding=(1, 1), output_padding=(1, 1))
      (gn): GroupNorm(2, 16, eps=1e-05, affine=True)
    )
    (conv_0): Conv2d(8, 1, kernel_size=(3, 3), stride=(1, 1), padding=(1, 1))
  )
  (gatenet): Sequential(
    (0): Sequential(
      (0): Conv2d(32, 4, kernel_size=(3, 3), stride=(1, 1), padding=(1, 1))
      (1): GroupNorm(1, 4, eps=1e-05, affine=True)
      (2): ReLU(inplace=True)
    )
    (1): ResnetBlockGn(
      (stem): Sequential(
        (0): Sequential(
          (0): Conv2d(4, 4, kernel_size=(1, 1), stride=(1, 1))
          (1): GroupNorm(1, 4, eps=1e-05, affine=True)
          (2): ReLU(inplace=True)
        )
        (1): Conv2d(4, 4, kernel_size=(1, 1), stride=(1, 1))
        (2): GroupNorm(1, 4, eps=1e-05, affine=True)
      )
      (relu): ReLU(inplace=True)
    )
    (2): Conv2d(4, 1, kernel_size=(1, 1), stride=(1, 1))
    (3): Sigmoid()
  )
  (mask_net): UResVCG16(
    (conv1_0): ConvGnReLU(
      (conv): Conv2d(3, 16, kernel_size=(3, 3), stride=(2, 2), padding=(1, 1))
      (gn): GroupNorm(2, 16, eps=1e-05, affine=True)
    )
    (conv2_0): ConvGnReLU(
      (conv): Conv2d(16, 32, kernel_size=(3, 3), stride=(2, 2), padding=(1, 1))
      (gn): GroupNorm(4, 32, eps=1e-05, affine=True)
    )
    (conv3_0): ConvGnReLU(
      (conv): Conv2d(32, 64, kernel_size=(3, 3), stride=(2, 2), padding=(1, 1))
      (gn): GroupNorm(8, 64, eps=1e-05, affine=True)
    )
    (conv4_0): ConvGnReLU(
      (conv): Conv2d(64, 128, kernel_size=(3, 3), stride=(2, 2), padding=(1, 1))
      (gn): GroupNorm(16, 128, eps=1e-05, affine=True)
    )
    (conv0_1): ConvGnReLU(
      (conv): Conv2d(3, 8, kernel_size=(3, 3), stride=(1, 1), padding=(1, 1))
      (gn): GroupNorm(1, 8, eps=1e-05, affine=True)
    )
    (conv0_2): ConvGnReLU(
      (conv): Conv2d(8, 8, kernel_size=(3, 3), stride=(1, 1), padding=(1, 1))
      (gn): GroupNorm(1, 8, eps=1e-05, affine=True)
    )
    (conv1_1): ConvGnReLU(
      (conv): Conv2d(16, 16, kernel_size=(3, 3), stride=(1, 1), padding=(1, 1))
      (gn): GroupNorm(2, 16, eps=1e-05, affine=True)
    )
    (conv1_2): ConvGnReLU(
      (conv): Conv2d(16, 16, kernel_size=(3, 3), stride=(1, 1), padding=(1, 1))
      (gn): GroupNorm(2, 16, eps=1e-05, affine=True)
    )
    (conv2_1): ConvGnReLU(
      (conv): Conv2d(32, 32, kernel_size=(3, 3), stride=(1, 1), padding=(1, 1))
      (gn): GroupNorm(4, 32, eps=1e-05, affine=True)
    )
    (conv2_2): ConvGnReLU(
      (conv): Conv2d(32, 32, kernel_size=(3, 3), stride=(1, 1), padding=(1, 1))
      (gn): GroupNorm(4, 32, eps=1e-05, affine=True)
    )
    (conv3_1): ConvGnReLU(
      (conv): Conv2d(64, 64, kernel_size=(3, 3), stride=(1, 1), padding=(1, 1))
      (gn): GroupNorm(8, 64, eps=1e-05, affine=True)
    )
    (conv3_2): ConvGnReLU(
      (conv): Conv2d(64, 64, kernel_size=(3, 3), stride=(1, 1), padding=(1, 1))
      (gn): GroupNorm(8, 64, eps=1e-05, affine=True)
    )
    (conv4_1): ConvGnReLU(
      (conv): Conv2d(128, 128, kernel_size=(3, 3), stride=(1, 1), padding=(1, 1))
      (gn): GroupNorm(16, 128, eps=1e-05, affine=True)
    )
    (conv4_2): ConvGnReLU(
      (conv): Conv2d(128, 128, kernel_size=(3, 3), stride=(1, 1), padding=(1, 1))
      (gn): GroupNorm(16, 128, eps=1e-05, affine=True)
    )
    (conv5_0): deConvGnReLU(
      (conv): ConvTranspose2d(128, 64, kernel_size=(3, 3), stride=(2, 2), padding=(1, 1), output_padding=(1, 1), bias=False)
      (gn): GroupNorm(8, 64, eps=1e-05, affine=True)
    )
    (conv5_1): ConvGnReLU(
      (conv): Conv2d(128, 64, kernel_size=(3, 3), stride=(1, 1), padding=(1, 1))
      (gn): GroupNorm(8, 64, eps=1e-05, affine=True)
    )
    (conv5_2): ConvGnReLU(
      (conv): Conv2d(64, 64, kernel_size=(3, 3), stride=(1, 1), padding=(1, 1))
      (gn): GroupNorm(8, 64, eps=1e-05, affine=True)
    )
    (conv6_0): deConvGnReLU(
      (conv): ConvTranspose2d(64, 32, kernel_size=(3, 3), stride=(2, 2), padding=(1, 1), output_padding=(1, 1), bias=False)
      (gn): GroupNorm(4, 32, eps=1e-05, affine=True)
    )
    (conv6_1): ConvGnReLU(
      (conv): Conv2d(64, 32, kernel_size=(3, 3), stride=(1, 1), padding=(1, 1))
      (gn): GroupNorm(4, 32, eps=1e-05, affine=True)
    )
    (conv6_2): ConvGnReLU(
      (conv): Conv2d(32, 32, kernel_size=(3, 3), stride=(1, 1), padding=(1, 1))
      (gn): GroupNorm(4, 32, eps=1e-05, affine=True)
    )
    (conv7_0): deConvGnReLU(
      (conv): ConvTranspose2d(32, 16, kernel_size=(3, 3), stride=(2, 2), padding=(1, 1), output_padding=(1, 1), bias=False)
      (gn): GroupNorm(2, 16, eps=1e-05, affine=True)
    )
    (conv7_1): ConvGnReLU(
      (conv): Conv2d(32, 16, kernel_size=(3, 3), stride=(1, 1), padding=(1, 1))
      (gn): GroupNorm(2, 16, eps=1e-05, affine=True)
    )
    (conv7_2): ConvGnReLU(
      (conv): Conv2d(16, 16, kernel_size=(3, 3), stride=(1, 1), padding=(1, 1))
      (gn): GroupNorm(2, 16, eps=1e-05, affine=True)
    )
    (conv8_0): deConvGnReLU(
      (conv): ConvTranspose2d(16, 8, kernel_size=(3, 3), stride=(2, 2), padding=(1, 1), output_padding=(1, 1), bias=False)
      (gn): GroupNorm(1, 8, eps=1e-05, affine=True)
    )
    (conv8_1): ConvGnReLU(
      (conv): Conv2d(16, 8, kernel_size=(3, 3), stride=(1, 1), padding=(1, 1))
      (gn): GroupNorm(1, 8, eps=1e-05, affine=True)
    )
    (conv8_2): ConvGnReLU(
      (conv): Conv2d(8, 8, kernel_size=(3, 3), stride=(1, 1), padding=(1, 1))
      (gn): GroupNorm(1, 8, eps=1e-05, affine=True)
    )
    (conv9_0): Conv2d(8, 2, kernel_size=(1, 1), stride=(1, 1))
    (conv9_1): Conv2d(2, 2, kernel_size=(1, 1), stride=(1, 1))
    (conv9_2): Conv2d(2, 2, kernel_size=(1, 1), stride=(1, 1))
    (activate_fn): Sigmoid()
  )
)
**********************

optimizer: Adam 

Number of model parameters: 936376
Model define:
start at epoch 0
DrMVSNet(
  (feature): FeatNet(
    (conv0_0): Sequential(
      (0): Conv2d(3, 16, kernel_size=(3, 3), stride=(1, 1), padding=(1, 1))
      (1): GroupNorm(2, 16, eps=1e-05, affine=True)
      (2): ReLU(inplace=True)
    )
    (conv0_1): Sequential(
      (0): Conv2d(16, 32, kernel_size=(3, 3), stride=(1, 1), padding=(1, 1))
      (1): GroupNorm(4, 32, eps=1e-05, affine=True)
      (2): ReLU(inplace=True)
    )
    (conv0_2): Sequential(
      (0): Conv2d(32, 32, kernel_size=(3, 3), stride=(1, 1), padding=(2, 2), dilation=(2, 2))
      (1): GroupNorm(4, 32, eps=1e-05, affine=True)
      (2): ReLU(inplace=True)
    )
    (conv0_3): Sequential(
      (0): Conv2d(32, 32, kernel_size=(3, 3), stride=(1, 1), padding=(1, 1))
      (1): GroupNorm(4, 32, eps=1e-05, affine=True)
      (2): ReLU(inplace=True)
    )
    (conv1_1): Sequential(
      (0): Conv2d(32, 32, kernel_size=(3, 3), stride=(1, 1), padding=(3, 3), dilation=(3, 3))
      (1): GroupNorm(4, 32, eps=1e-05, affine=True)
      (2): ReLU(inplace=True)
    )
    (conv1_2): Sequential(
      (0): Conv2d(32, 32, kernel_size=(3, 3), stride=(1, 1), padding=(1, 1))
      (1): GroupNorm(4, 32, eps=1e-05, affine=True)
      (2): ReLU(inplace=True)
    )
    (conv2_1): Sequential(
      (0): Conv2d(32, 32, kernel_size=(3, 3), stride=(1, 1), padding=(4, 4), dilation=(4, 4))
      (1): GroupNorm(4, 32, eps=1e-05, affine=True)
      (2): ReLU(inplace=True)
    )
    (conv2_2): Sequential(
      (0): Conv2d(32, 32, kernel_size=(3, 3), stride=(1, 1), padding=(1, 1))
      (1): GroupNorm(4, 32, eps=1e-05, affine=True)
      (2): ReLU(inplace=True)
    )
    (conv): Conv2d(96, 32, kernel_size=(3, 3), stride=(1, 1), padding=(1, 1))
  )
  (cost_regularization): UNetConvLSTM(
    (cell_list): ModuleList(
      (0): ConvLSTMCell(
        (conv): Conv2d(48, 64, kernel_size=(3, 3), stride=(1, 1), padding=(1, 1))
      )
      (1): ConvLSTMCell(
        (conv): Conv2d(32, 64, kernel_size=(3, 3), stride=(1, 1), padding=(1, 1))
      )
      (2): ConvLSTMCell(
        (conv): Conv2d(32, 64, kernel_size=(3, 3), stride=(1, 1), padding=(1, 1))
      )
      (3): ConvLSTMCell(
        (conv): Conv2d(48, 64, kernel_size=(3, 3), stride=(1, 1), padding=(1, 1))
      )
      (4): ConvLSTMCell(
        (conv): Conv2d(40, 32, kernel_size=(3, 3), stride=(1, 1), padding=(1, 1))
      )
    )
    (deconv_0): deConvGnReLU(
      (conv): ConvTranspose2d(16, 16, kernel_size=(3, 3), stride=(2, 2), padding=(1, 1), output_padding=(1, 1))
      (gn): GroupNorm(2, 16, eps=1e-05, affine=True)
    )
    (deconv_1): deConvGnReLU(
      (conv): ConvTranspose2d(16, 16, kernel_size=(3, 3), stride=(2, 2), padding=(1, 1), output_padding=(1, 1))
      (gn): GroupNorm(2, 16, eps=1e-05, affine=True)
    )
    (conv_0): Conv2d(8, 1, kernel_size=(3, 3), stride=(1, 1), padding=(1, 1))
  )
  (gatenet): Sequential(
    (0): Sequential(
      (0): Conv2d(32, 4, kernel_size=(3, 3), stride=(1, 1), padding=(1, 1))
      (1): GroupNorm(1, 4, eps=1e-05, affine=True)
      (2): ReLU(inplace=True)
    )
    (1): ResnetBlockGn(
      (stem): Sequential(
        (0): Sequential(
          (0): Conv2d(4, 4, kernel_size=(1, 1), stride=(1, 1))
          (1): GroupNorm(1, 4, eps=1e-05, affine=True)
          (2): ReLU(inplace=True)
        )
        (1): Conv2d(4, 4, kernel_size=(1, 1), stride=(1, 1))
        (2): GroupNorm(1, 4, eps=1e-05, affine=True)
      )
      (relu): ReLU(inplace=True)
    )
    (2): Conv2d(4, 1, kernel_size=(1, 1), stride=(1, 1))
    (3): Sigmoid()
  )
  (mask_net): UResVCG16(
    (conv1_0): ConvGnReLU(
      (conv): Conv2d(3, 16, kernel_size=(3, 3), stride=(2, 2), padding=(1, 1))
      (gn): GroupNorm(2, 16, eps=1e-05, affine=True)
    )
    (conv2_0): ConvGnReLU(
      (conv): Conv2d(16, 32, kernel_size=(3, 3), stride=(2, 2), padding=(1, 1))
      (gn): GroupNorm(4, 32, eps=1e-05, affine=True)
    )
    (conv3_0): ConvGnReLU(
      (conv): Conv2d(32, 64, kernel_size=(3, 3), stride=(2, 2), padding=(1, 1))
      (gn): GroupNorm(8, 64, eps=1e-05, affine=True)
    )
    (conv4_0): ConvGnReLU(
      (conv): Conv2d(64, 128, kernel_size=(3, 3), stride=(2, 2), padding=(1, 1))
      (gn): GroupNorm(16, 128, eps=1e-05, affine=True)
    )
    (conv0_1): ConvGnReLU(
      (conv): Conv2d(3, 8, kernel_size=(3, 3), stride=(1, 1), padding=(1, 1))
      (gn): GroupNorm(1, 8, eps=1e-05, affine=True)
    )
    (conv0_2): ConvGnReLU(
      (conv): Conv2d(8, 8, kernel_size=(3, 3), stride=(1, 1), padding=(1, 1))
      (gn): GroupNorm(1, 8, eps=1e-05, affine=True)
    )
    (conv1_1): ConvGnReLU(
      (conv): Conv2d(16, 16, kernel_size=(3, 3), stride=(1, 1), padding=(1, 1))
      (gn): GroupNorm(2, 16, eps=1e-05, affine=True)
    )
    (conv1_2): ConvGnReLU(
      (conv): Conv2d(16, 16, kernel_size=(3, 3), stride=(1, 1), padding=(1, 1))
      (gn): GroupNorm(2, 16, eps=1e-05, affine=True)
    )
    (conv2_1): ConvGnReLU(
      (conv): Conv2d(32, 32, kernel_size=(3, 3), stride=(1, 1), padding=(1, 1))
      (gn): GroupNorm(4, 32, eps=1e-05, affine=True)
    )
    (conv2_2): ConvGnReLU(
      (conv): Conv2d(32, 32, kernel_size=(3, 3), stride=(1, 1), padding=(1, 1))
      (gn): GroupNorm(4, 32, eps=1e-05, affine=True)
    )
    (conv3_1): ConvGnReLU(
      (conv): Conv2d(64, 64, kernel_size=(3, 3), stride=(1, 1), padding=(1, 1))
      (gn): GroupNorm(8, 64, eps=1e-05, affine=True)
    )
    (conv3_2): ConvGnReLU(
      (conv): Conv2d(64, 64, kernel_size=(3, 3), stride=(1, 1), padding=(1, 1))
      (gn): GroupNorm(8, 64, eps=1e-05, affine=True)
    )
    (conv4_1): ConvGnReLU(
      (conv): Conv2d(128, 128, kernel_size=(3, 3), stride=(1, 1), padding=(1, 1))
      (gn): GroupNorm(16, 128, eps=1e-05, affine=True)
    )
    (conv4_2): ConvGnReLU(
      (conv): Conv2d(128, 128, kernel_size=(3, 3), stride=(1, 1), padding=(1, 1))
      (gn): GroupNorm(16, 128, eps=1e-05, affine=True)
    )
    (conv5_0): deConvGnReLU(
      (conv): ConvTranspose2d(128, 64, kernel_size=(3, 3), stride=(2, 2), padding=(1, 1), output_padding=(1, 1), bias=False)
      (gn): GroupNorm(8, 64, eps=1e-05, affine=True)
    )
    (conv5_1): ConvGnReLU(
      (conv): Conv2d(128, 64, kernel_size=(3, 3), stride=(1, 1), padding=(1, 1))
      (gn): GroupNorm(8, 64, eps=1e-05, affine=True)
    )
    (conv5_2): ConvGnReLU(
      (conv): Conv2d(64, 64, kernel_size=(3, 3), stride=(1, 1), padding=(1, 1))
      (gn): GroupNorm(8, 64, eps=1e-05, affine=True)
    )
    (conv6_0): deConvGnReLU(
      (conv): ConvTranspose2d(64, 32, kernel_size=(3, 3), stride=(2, 2), padding=(1, 1), output_padding=(1, 1), bias=False)
      (gn): GroupNorm(4, 32, eps=1e-05, affine=True)
    )
    (conv6_1): ConvGnReLU(
      (conv): Conv2d(64, 32, kernel_size=(3, 3), stride=(1, 1), padding=(1, 1))
      (gn): GroupNorm(4, 32, eps=1e-05, affine=True)
    )
    (conv6_2): ConvGnReLU(
      (conv): Conv2d(32, 32, kernel_size=(3, 3), stride=(1, 1), padding=(1, 1))
      (gn): GroupNorm(4, 32, eps=1e-05, affine=True)
    )
    (conv7_0): deConvGnReLU(
      (conv): ConvTranspose2d(32, 16, kernel_size=(3, 3), stride=(2, 2), padding=(1, 1), output_padding=(1, 1), bias=False)
      (gn): GroupNorm(2, 16, eps=1e-05, affine=True)
    )
    (conv7_1): ConvGnReLU(
      (conv): Conv2d(32, 16, kernel_size=(3, 3), stride=(1, 1), padding=(1, 1))
      (gn): GroupNorm(2, 16, eps=1e-05, affine=True)
    )
    (conv7_2): ConvGnReLU(
      (conv): Conv2d(16, 16, kernel_size=(3, 3), stride=(1, 1), padding=(1, 1))
      (gn): GroupNorm(2, 16, eps=1e-05, affine=True)
    )
    (conv8_0): deConvGnReLU(
      (conv): ConvTranspose2d(16, 8, kernel_size=(3, 3), stride=(2, 2), padding=(1, 1), output_padding=(1, 1), bias=False)
      (gn): GroupNorm(1, 8, eps=1e-05, affine=True)
    )
    (conv8_1): ConvGnReLU(
      (conv): Conv2d(16, 8, kernel_size=(3, 3), stride=(1, 1), padding=(1, 1))
      (gn): GroupNorm(1, 8, eps=1e-05, affine=True)
    )
    (conv8_2): ConvGnReLU(
      (conv): Conv2d(8, 8, kernel_size=(3, 3), stride=(1, 1), padding=(1, 1))
      (gn): GroupNorm(1, 8, eps=1e-05, affine=True)
    )
    (conv9_0): Conv2d(8, 2, kernel_size=(1, 1), stride=(1, 1))
    (conv9_1): Conv2d(2, 2, kernel_size=(1, 1), stride=(1, 1))
    (conv9_2): Conv2d(2, 2, kernel_size=(1, 1), stride=(1, 1))
    (activate_fn): Sigmoid()
  )
)
**********************

Dist Train, Let's use 4 GPUs!
optimizer: Adam 

start at epoch 0
Number of model parameters: 936376
Selected optimization level O0:  Pure FP32 training.

Defaults for this optimization level are:
Model define:
enabled                : True
opt_level              : O0
cast_model_type        : torch.float32
patch_torch_functions  : False
keep_batchnorm_fp32    : None
master_weights         : False
loss_scale             : 1.0
Processing user overrides (additional kwargs that are not None)...
After processing overrides, optimization options are:
enabled                : True
opt_level              : O0
cast_model_type        : torch.float32
patch_torch_functions  : False
keep_batchnorm_fp32    : None
master_weights         : False
loss_scale             : 1.0
DrMVSNet(
  (feature): FeatNet(
    (conv0_0): Sequential(
      (0): Conv2d(3, 16, kernel_size=(3, 3), stride=(1, 1), padding=(1, 1))
      (1): GroupNorm(2, 16, eps=1e-05, affine=True)
      (2): ReLU(inplace=True)
    )
    (conv0_1): Sequential(
      (0): Conv2d(16, 32, kernel_size=(3, 3), stride=(1, 1), padding=(1, 1))
      (1): GroupNorm(4, 32, eps=1e-05, affine=True)
      (2): ReLU(inplace=True)
    )
    (conv0_2): Sequential(
      (0): Conv2d(32, 32, kernel_size=(3, 3), stride=(1, 1), padding=(2, 2), dilation=(2, 2))
      (1): GroupNorm(4, 32, eps=1e-05, affine=True)
      (2): ReLU(inplace=True)
    )
    (conv0_3): Sequential(
      (0): Conv2d(32, 32, kernel_size=(3, 3), stride=(1, 1), padding=(1, 1))
      (1): GroupNorm(4, 32, eps=1e-05, affine=True)
      (2): ReLU(inplace=True)
    )
    (conv1_1): Sequential(
      (0): Conv2d(32, 32, kernel_size=(3, 3), stride=(1, 1), padding=(3, 3), dilation=(3, 3))
      (1): GroupNorm(4, 32, eps=1e-05, affine=True)
      (2): ReLU(inplace=True)
    )
    (conv1_2): Sequential(
      (0): Conv2d(32, 32, kernel_size=(3, 3), stride=(1, 1), padding=(1, 1))
      (1): GroupNorm(4, 32, eps=1e-05, affine=True)
      (2): ReLU(inplace=True)
    )
    (conv2_1): Sequential(
      (0): Conv2d(32, 32, kernel_size=(3, 3), stride=(1, 1), padding=(4, 4), dilation=(4, 4))
      (1): GroupNorm(4, 32, eps=1e-05, affine=True)
      (2): ReLU(inplace=True)
    )
    (conv2_2): Sequential(
      (0): Conv2d(32, 32, kernel_size=(3, 3), stride=(1, 1), padding=(1, 1))
      (1): GroupNorm(4, 32, eps=1e-05, affine=True)
      (2): ReLU(inplace=True)
    )
    (conv): Conv2d(96, 32, kernel_size=(3, 3), stride=(1, 1), padding=(1, 1))
  )
  (cost_regularization): UNetConvLSTM(
    (cell_list): ModuleList(
      (0): ConvLSTMCell(
        (conv): Conv2d(48, 64, kernel_size=(3, 3), stride=(1, 1), padding=(1, 1))
      )
      (1): ConvLSTMCell(
        (conv): Conv2d(32, 64, kernel_size=(3, 3), stride=(1, 1), padding=(1, 1))
      )
      (2): ConvLSTMCell(
        (conv): Conv2d(32, 64, kernel_size=(3, 3), stride=(1, 1), padding=(1, 1))
      )
      (3): ConvLSTMCell(
        (conv): Conv2d(48, 64, kernel_size=(3, 3), stride=(1, 1), padding=(1, 1))
      )
      (4): ConvLSTMCell(
        (conv): Conv2d(40, 32, kernel_size=(3, 3), stride=(1, 1), padding=(1, 1))
      )
    )
    (deconv_0): deConvGnReLU(
      (conv): ConvTranspose2d(16, 16, kernel_size=(3, 3), stride=(2, 2), padding=(1, 1), output_padding=(1, 1))
      (gn): GroupNorm(2, 16, eps=1e-05, affine=True)
    )
    (deconv_1): deConvGnReLU(
      (conv): ConvTranspose2d(16, 16, kernel_size=(3, 3), stride=(2, 2), padding=(1, 1), output_padding=(1, 1))
      (gn): GroupNorm(2, 16, eps=1e-05, affine=True)
    )
    (conv_0): Conv2d(8, 1, kernel_size=(3, 3), stride=(1, 1), padding=(1, 1))
  )
  (gatenet): Sequential(
    (0): Sequential(
      (0): Conv2d(32, 4, kernel_size=(3, 3), stride=(1, 1), padding=(1, 1))
      (1): GroupNorm(1, 4, eps=1e-05, affine=True)
      (2): ReLU(inplace=True)
    )
    (1): ResnetBlockGn(
      (stem): Sequential(
        (0): Sequential(
          (0): Conv2d(4, 4, kernel_size=(1, 1), stride=(1, 1))
          (1): GroupNorm(1, 4, eps=1e-05, affine=True)
          (2): ReLU(inplace=True)
        )
        (1): Conv2d(4, 4, kernel_size=(1, 1), stride=(1, 1))
        (2): GroupNorm(1, 4, eps=1e-05, affine=True)
      )
      (relu): ReLU(inplace=True)
    )
    (2): Conv2d(4, 1, kernel_size=(1, 1), stride=(1, 1))
    (3): Sigmoid()
  )
  (mask_net): UResVCG16(
    (conv1_0): ConvGnReLU(
      (conv): Conv2d(3, 16, kernel_size=(3, 3), stride=(2, 2), padding=(1, 1))
      (gn): GroupNorm(2, 16, eps=1e-05, affine=True)
    )
    (conv2_0): ConvGnReLU(
      (conv): Conv2d(16, 32, kernel_size=(3, 3), stride=(2, 2), padding=(1, 1))
      (gn): GroupNorm(4, 32, eps=1e-05, affine=True)
    )
    (conv3_0): ConvGnReLU(
      (conv): Conv2d(32, 64, kernel_size=(3, 3), stride=(2, 2), padding=(1, 1))
      (gn): GroupNorm(8, 64, eps=1e-05, affine=True)
    )
    (conv4_0): ConvGnReLU(
      (conv): Conv2d(64, 128, kernel_size=(3, 3), stride=(2, 2), padding=(1, 1))
      (gn): GroupNorm(16, 128, eps=1e-05, affine=True)
    )
    (conv0_1): ConvGnReLU(
      (conv): Conv2d(3, 8, kernel_size=(3, 3), stride=(1, 1), padding=(1, 1))
      (gn): GroupNorm(1, 8, eps=1e-05, affine=True)
    )
    (conv0_2): ConvGnReLU(
      (conv): Conv2d(8, 8, kernel_size=(3, 3), stride=(1, 1), padding=(1, 1))
      (gn): GroupNorm(1, 8, eps=1e-05, affine=True)
    )
    (conv1_1): ConvGnReLU(
      (conv): Conv2d(16, 16, kernel_size=(3, 3), stride=(1, 1), padding=(1, 1))
      (gn): GroupNorm(2, 16, eps=1e-05, affine=True)
    )
    (conv1_2): ConvGnReLU(
      (conv): Conv2d(16, 16, kernel_size=(3, 3), stride=(1, 1), padding=(1, 1))
      (gn): GroupNorm(2, 16, eps=1e-05, affine=True)
    )
    (conv2_1): ConvGnReLU(
      (conv): Conv2d(32, 32, kernel_size=(3, 3), stride=(1, 1), padding=(1, 1))
      (gn): GroupNorm(4, 32, eps=1e-05, affine=True)
    )
    (conv2_2): ConvGnReLU(
      (conv): Conv2d(32, 32, kernel_size=(3, 3), stride=(1, 1), padding=(1, 1))
      (gn): GroupNorm(4, 32, eps=1e-05, affine=True)
    )
    (conv3_1): ConvGnReLU(
      (conv): Conv2d(64, 64, kernel_size=(3, 3), stride=(1, 1), padding=(1, 1))
      (gn): GroupNorm(8, 64, eps=1e-05, affine=True)
    )
    (conv3_2): ConvGnReLU(
      (conv): Conv2d(64, 64, kernel_size=(3, 3), stride=(1, 1), padding=(1, 1))
      (gn): GroupNorm(8, 64, eps=1e-05, affine=True)
    )
    (conv4_1): ConvGnReLU(
      (conv): Conv2d(128, 128, kernel_size=(3, 3), stride=(1, 1), padding=(1, 1))
      (gn): GroupNorm(16, 128, eps=1e-05, affine=True)
    )
    (conv4_2): ConvGnReLU(
      (conv): Conv2d(128, 128, kernel_size=(3, 3), stride=(1, 1), padding=(1, 1))
      (gn): GroupNorm(16, 128, eps=1e-05, affine=True)
    )
    (conv5_0): deConvGnReLU(
      (conv): ConvTranspose2d(128, 64, kernel_size=(3, 3), stride=(2, 2), padding=(1, 1), output_padding=(1, 1), bias=False)
      (gn): GroupNorm(8, 64, eps=1e-05, affine=True)
    )
    (conv5_1): ConvGnReLU(
      (conv): Conv2d(128, 64, kernel_size=(3, 3), stride=(1, 1), padding=(1, 1))
      (gn): GroupNorm(8, 64, eps=1e-05, affine=True)
    )
    (conv5_2): ConvGnReLU(
      (conv): Conv2d(64, 64, kernel_size=(3, 3), stride=(1, 1), padding=(1, 1))
      (gn): GroupNorm(8, 64, eps=1e-05, affine=True)
    )
    (conv6_0): deConvGnReLU(
      (conv): ConvTranspose2d(64, 32, kernel_size=(3, 3), stride=(2, 2), padding=(1, 1), output_padding=(1, 1), bias=False)
      (gn): GroupNorm(4, 32, eps=1e-05, affine=True)
    )
    (conv6_1): ConvGnReLU(
      (conv): Conv2d(64, 32, kernel_size=(3, 3), stride=(1, 1), padding=(1, 1))
      (gn): GroupNorm(4, 32, eps=1e-05, affine=True)
    )
    (conv6_2): ConvGnReLU(
      (conv): Conv2d(32, 32, kernel_size=(3, 3), stride=(1, 1), padding=(1, 1))
      (gn): GroupNorm(4, 32, eps=1e-05, affine=True)
    )
    (conv7_0): deConvGnReLU(
      (conv): ConvTranspose2d(32, 16, kernel_size=(3, 3), stride=(2, 2), padding=(1, 1), output_padding=(1, 1), bias=False)
      (gn): GroupNorm(2, 16, eps=1e-05, affine=True)
    )
    (conv7_1): ConvGnReLU(
      (conv): Conv2d(32, 16, kernel_size=(3, 3), stride=(1, 1), padding=(1, 1))
      (gn): GroupNorm(2, 16, eps=1e-05, affine=True)
    )
    (conv7_2): ConvGnReLU(
      (conv): Conv2d(16, 16, kernel_size=(3, 3), stride=(1, 1), padding=(1, 1))
      (gn): GroupNorm(2, 16, eps=1e-05, affine=True)
    )
    (conv8_0): deConvGnReLU(
      (conv): ConvTranspose2d(16, 8, kernel_size=(3, 3), stride=(2, 2), padding=(1, 1), output_padding=(1, 1), bias=False)
      (gn): GroupNorm(1, 8, eps=1e-05, affine=True)
    )
    (conv8_1): ConvGnReLU(
      (conv): Conv2d(16, 8, kernel_size=(3, 3), stride=(1, 1), padding=(1, 1))
      (gn): GroupNorm(1, 8, eps=1e-05, affine=True)
    )
    (conv8_2): ConvGnReLU(
      (conv): Conv2d(8, 8, kernel_size=(3, 3), stride=(1, 1), padding=(1, 1))
      (gn): GroupNorm(1, 8, eps=1e-05, affine=True)
    )
    (conv9_0): Conv2d(8, 2, kernel_size=(1, 1), stride=(1, 1))
    (conv9_1): Conv2d(2, 2, kernel_size=(1, 1), stride=(1, 1))
    (conv9_2): Conv2d(2, 2, kernel_size=(1, 1), stride=(1, 1))
    (activate_fn): Sigmoid()
  )
)
**********************

optimizer: Adam 

start at epoch 0
Dist Train, Let's use 4 GPUs!
Warning:  multi_tensor_applier fused unscale kernel is unavailable, possibly because apex was installed without --cuda_ext --cpp_ext. Using Python fallback.  Original ImportError was: ModuleNotFoundError("No module named 'amp_C'",)
Dist Train, Let's use 4 GPUs!
…
